model.pth (torch, 16799 bytes, 4 tensors)

linear1.weight f4 [256, 11]
000000 c6 d0 01 bd e2 45 59 3e e4 34 2b 3e 5c c5 b2 bd
       -0.031693242 0.21218064 0.16719395 -0.087290496
000010 a6 aa 56 bd cb b2 29 be 48 48 13 be 09 ae d1 3e
       -0.052408837 -0.1657211 -0.14383042 0.4095309
000020 4a 22 db 3e 4b ae bc 3e 64 0a 9e 3e 69 4c 9d 3d
       0.42799598 0.36851725 0.30867302 0.0768059
000030 45 f9 4b be 30 f6 9b 3e 96 bc 9f 3e e3 76 41 bc
       -0.19919308 0.30461264 0.31198567 -0.01180813
000040 73 9d 7a bd e8 a6 88 3d 04 c4 3e 3d 68 7c 92 3e
       -0.06118531 0.0667246 0.046573654 0.2861054
000050 24 5d 9c 3e 82 1a 43 bd 32 72 d1 bc a8 b1 cd bb
       0.3053981 -0.0476327 -0.025567148 -0.006277282
000060 4d 67 3a 3c 78 23 a3 3e 24 bb 7e be b5 1a 2a bd
       0.011377168 0.31862998 -0.24876076 -0.041529376
000070 ee 2b e6 3e ec aa 87 be 65 20 dd 3e a4 04 6e 3e
       0.4495539 -0.2649759 0.43188778 0.23243958
000080 85 fc a8 be 6b 5f ab be 2c 94 ca bd b5 95 5f 3e
       -0.33005157 -0.33471236 -0.09891543 0.21834452
000090 b6 af 29 3e 6e c8 85 3e 27 02 22 bf 2b b9 95 be
       0.16570935 0.26129478 -0.63284534 -0.29242834
0000a0 5e d4 18 3e 99 a1 9c 3d a9 c8 c7 be e6 4d cf be
       0.14924762 0.0764801 -0.3902028 -0.4048912
0000b0 50 f9 9f 3c 21 83 56 be ae 12 37 be 4a 48 8c be
       0.019528061 -0.20948459 -0.1787822 -0.27398902
0000c0 00 67 ab 3d c6 d3 69 be 4a 4d 48 be 96 9a f1 bd
       0.08369255 -0.22834691 -0.19560733 -0.11797063
0000d0 b4 c4 41 3d 30 06 94 3d 0a 61 52 be 64 b3 e8 3d
       0.04730673 0.07227743 -0.2054483 0.11362341
0000e0 87 7e 17 be 75 a7 0d 3f 62 92 dc 3c b7 ed f8 be
       -0.1479436 0.55333644 0.02692527 -0.48618862
0000f0 29 76 a0 3e 23 07 25 be 71 3e 91 be 6b e9 df bd
       0.3134015 -0.16116004 -0.28367952 -0.10933193
000100 1c 0a f7 3e de 89 35 be 1c a8 d4 3d bb db da bd
       0.482499 -0.17728373 0.10383627 -0.106864415
000110 1c 14 a8 3d 91 ef 89 bd 6d af 4a bd 80 fe 0c be
       0.082069606 -0.06735147 -0.049483705 -0.13768959
000120 9f e8 4a bd fc 56 25 3c 81 2f 27 bd e9 cb fd bd
       -0.04953825 0.0100915395 -0.040816788 -0.123924084
000130 cb 2c 60 be 80 18 1f 3e c4 6d 4b 3c c8 eb f5 be
       -0.21892087 0.1553669 0.012416307 -0.4803145
000140 1f 47 34 3e e6 75 b4 3e 41 c4 f3 be 66 c4 b7 be
       0.17605256 0.352462 -0.47610667 -0.35892028
000150 7b 7f 86 be 04 0a dd be bf e6 b1 3e 01 c0 91 3e
       -0.26269135 -0.43171704 0.34746358 0.284668
000160 07 ea 95 be 44 fe 19 3f 72 12 27 bf 7d 7c 65 3e
       -0.2928011 0.60153604 -0.6526252 0.2241077
000170 6a 7e 7a 3d bd 87 74 3e af 68 94 3e 8d 80 a8 bd
       0.061155714 0.23879905 0.28986117 -0.08227644
000180 29 d5 89 be c5 e6 33 be cb 50 20 be 37 c3 b1 3d
       -0.2692044 -0.175685 -0.1565582 0.086798124
000190 4a de e5 be b6 84 eb be 8d 8a a0 be d0 c0 9f bd
       -0.44896156 -0.45999688 -0.31355706 -0.07800448
0001a0 e3 3f b0 be ca 99 e8 bb b0 c0 a6 3d 24 82 18 be
       -0.34423742 -0.007098411 0.08142221 -0.14893395
0001b0 54 dc 61 be 0c 10 f9 bd f4 9e 0f 3e 95 e5 58 3e
       -0.22056705 -0.12161264 0.1402548 0.21181329
0001c0 c3 23 a9 3e be 4d f2 3d 30 7f 0b be 21 76 21 3c
       0.33035097 0.118312344 -0.13622737 0.009854824
0001d0 a5 c1 2b 3c 59 2e e5 bd 40 22 fa 3e a0 6a c8 3e
       0.01048318 -0.11190481 0.48854256 0.39143848
0001e0 fa 76 43 3e f8 77 55 3d 74 89 4e 3e c3 56 4c be
       0.19088355 0.052116364 0.20169622 -0.19954972
0001f0 c5 0b 5e be f9 1a 9f bd c1 01 20 bb 70 23 bf be
       -0.21684177 -0.077688165 -0.0024415108 -0.37331724
000200 99 9c 1c bd cd 29 c8 bd 5d 22 90 be d2 4f a0 3d
       -0.03823528 -0.09773598 -0.28151217 0.078277245
000210 fe 2a 84 be 0e d1 15 3f cb 6c e1 3d 9e 6d aa 3d
       -0.2581405 0.5852212 0.11007079 0.08321689
000220 90 a4 80 3c fc 4b 01 bf 82 a1 1e bf ce fc a4 3e
       0.01570347 -0.5050657 -0.6196519 0.32224125
000230 3c 9a a3 3e a3 fc d0 be 29 ca aa be 71 8f d2 3d
       0.3195361 -0.40817747 -0.3335736 0.102812655
000240 8d f3 11 bf 04 af 5c 3e 46 d8 5d 3e bc 32 45 be
       -0.57012254 0.21551138 0.21664533 -0.19257635
000250 85 19 8e 3d 9a 84 c0 bd fe 04 38 be b3 05 a0 3e
       0.06938461 -0.09400292 -0.17970654 0.31254348
000260 16 e7 3f be 65 41 c1 bd c4 c5 b6 3d fb 51 0e bf
       -0.18740496 -0.09436301 0.089244395 -0.5559384
000270 0c 52 39 3d 56 e1 2c be ed b5 1c 3e 93 82 06 bf
       0.04524426 -0.16882834 0.15303774 -0.5254299
000280 c9 96 e9 3e 2c 07 09 bf ad 46 2b be 2a c1 49 bf
       0.45622852 -0.5352657 -0.1672618 -0.7881037
000290 de c9 9c 3d ae d4 46 3d 20 0d fa bc d6 15 84 3c
       0.076556906 0.04854267 -0.030523837 0.016123693
0002a0 0e 93 15 3e 4a bf 5a 3e 32 ec 30 be 92 56 9a be
       0.14606878 0.21362033 -0.17277601 -0.30144173
0002b0 3f c7 7a be 31 2f 25 be d6 41 a5 bd 66 76 63 be
       -0.24490069 -0.16131283 -0.08069198 -0.22213134
0002c0 6f 4e 3c 3e 82 aa 42 3e 05 16 3e 3e f0 61 50 be
       0.18389295 0.19010356 0.18563087 -0.2034986
0002d0 3e ce e8 bd e0 7e 7a be 62 18 d0 be 98 16 4c bd
       -0.113674626 -0.24462461 -0.40643603 -0.049826235
0002e0 b2 69 0c 3e 1a 05 2c 3c 7c 61 5f 3e a1 27 b9 bb
       0.13712195 0.010499263 0.21814531 -0.005650476
0002f0 ab 7a 9f 3e b6 50 d4 3e 50 d3 25 be 3f ab 80 3b
       0.31148276 0.41467828 -0.1619389 0.003926664
000300 eb f7 0d 3e 99 b3 b2 3d fb 89 98 3e a9 6d f1 3d
       0.13864104 0.08725662 0.2979277 0.11788494
000310 39 b4 82 3e 1b 07 c8 3e 8e 8d a2 be 30 bb 8b bd
       0.25528124 0.3906792 -0.31748623 -0.068228126
000320 7b de cc bd bc be 56 3e d7 20 8f be 8c 25 8c be
       -0.10003372 0.20971197 -0.27954742 -0.27372396
000330 d4 6f a7 3d 1f 7d e9 be 24 a9 64 be b3 0c 9a 3e
       0.081756264 -0.45603272 -0.22330147 0.30087814
000340 3c fd 41 be fa cc 9a be df 64 85 bd 68 aa 66 bc
       -0.18944257 -0.3023451 -0.0651338 -0.014078714
000350 5e 7b 1a 3f ef 8c be 3e f8 c2 b2 be ff 3b 18 3d
       0.60344493 0.372169 -0.34914374 0.03716659
000360 fd 13 20 bf bd c8 87 be bc bf cc 3e 86 9c 08 bd
       -0.625305 -0.2652034 0.39990032 -0.033352397
000370 a4 e3 a2 bd f4 3c 00 3e a5 12 ce 3e 44 f0 bd 3d
       -0.07953575 0.12523252 0.402486 0.09274343
000380 e2 0a 9c be 18 ac 0a bd 1e a7 99 be c7 80 b5 bd
       -0.30477053 -0.033855528 -0.30010313 -0.08862453
000390 5e 8c e9 3e e6 3f 9b 3e 86 6e e6 3d 9d 97 5b be
       0.45614904 0.30322188 0.112515494 -0.21444555
0003a0 71 2b 37 bd f4 43 1b 3e bd 7b fd 3d 2c 6c 84 3d
       -0.044719163 0.15162641 0.12377117 0.06465945
0003b0 4f 1f 8f bd c3 d2 9d bb 4a 54 b0 bd 8f ef 8d 3d
       -0.069883935 -0.0048163845 -0.08609827 0.06930458
0003c0 f1 50 f4 bc 24 9f a4 be 3b c5 73 3e c0 90 dd be
       -0.029823752 -0.32152665 0.23805706 -0.43274498
0003d0 ce f3 07 3f 28 58 0e 3e 27 f2 99 be c2 16 9f be
       0.5310639 0.13900816 -0.3006756 -0.3107205
0003e0 85 4c 34 3d ad 2e 8b bd b2 4a b9 3d 8f e3 be 3e
       0.044018287 -0.06796012 0.0904745 0.37282988
0003f0 b2 cd 5d be f2 3e f5 3e ba 47 c2 bd 10 4f b0 bd
       -0.21660498 0.47899586 -0.09486337 -0.0860883

linear1.bias f4 [256]
000000 1f f6 ad be 27 7b ce be 49 2d 69 be 57 6d 56 3e
       -0.33976838 -0.40328333 -0.22771181 0.20940147
000010 0f 21 68 be 3f 69 85 bd 2f bd 19 be 2a 48 c6 bc
       -0.22668861 -0.06514215 -0.15013574 -0.024204332
000020 a1 97 0b 3f 7a cc 22 3c e3 8a 19 bf 13 29 21 be
       0.5452824 0.009936446 -0.5997755 -0.15738325
000030 c4 5e 73 3e e6 35 73 be a5 c6 92 3e a0 d9 61 be
       0.23766619 -0.2375103 0.2866718 -0.22055674
000040 9c f8 4b be 09 ff a6 be 5a 96 66 bd 0b b8 9e bd
       -0.19919056 -0.3261645 -0.05629573 -0.07749947
000050 67 27 4a be a4 f2 b1 be ea ba 29 be 58 55 55 be
       -0.19741593 -0.34755433 -0.16575208 -0.20833337
000060 a0 5f 92 bc 4a 68 22 bf 42 c2 47 be 8e 0b 33 3e
       -0.017867863 -0.6344038 -0.19507697 0.17484877
000070 a9 15 8e be 93 28 53 bc 35 29 bc bd fa 26 92 bd
       -0.277509 -0.012888092 -0.09187547 -0.071363404
000080 ab 8b bd be e9 0f 84 be f9 c2 52 be 1b b8 9f be
       -0.3702062 -0.25793388 -0.20582189 -0.3119515
000090 1d 97 83 3c 79 55 db bd a2 4c 94 be 54 f4 b7 be
       0.016063267 -0.10709662 -0.28964716 -0.35928595
0000a0 88 30 9c 3d f4 30 7d be 1b cb ab be 46 c4 e5 3d
       0.07626444 -0.24725705 -0.33553395 0.11219077
0000b0 cb 69 81 be eb 5e fc 3c f8 49 0f be 5a 94 26 3e
       -0.25276026 0.03080698 -0.1399306 0.16267529
0000c0 2e 0b 90 be 73 90 8e bd 0c a8 e9 3e c7 59 05 bf
       -0.2813353 -0.06961145 0.45636022 -0.52090114
0000d0 77 b7 62 3d 7b cd fa bd 4d 99 04 bf fc b9 29 3f
       0.055350747 -0.122462235 -0.5179642 0.66299415
0000e0 b4 76 88 3e 69 25 34 3e 74 66 05 bf b2 a0 d5 be
       0.26653063 0.17592396 -0.52109456 -0.41724163
0000f0 ca 4e 57 be b4 68 ab be f4 90 a0 3d 9f 77 ab be
       -0.2102615 -0.3347832 0.078401476 -0.334897
000100 4c c8 1f bd 14 06 ae 3e 40 ee 64 bc 82 fa 03 be
       -0.039009377 0.33989012 -0.013972819 -0.1288853
000110 45 52 a4 be 97 fd 15 bd 02 d9 96 be a9 d8 f9 3c
       -0.32094017 -0.036618795 -0.2946244 0.03049882
000120 e5 0c 4e be fe 3e bd be c0 7f 18 be 5c 2b be 3e
       -0.20122106 -0.36962122 -0.14892483 0.37142456
000130 79 a4 06 bc 1c 2c 9f 3d 89 36 1e be 69 a6 c2 be
       -0.008217924 0.07772085 -0.15450491 -0.38017586
000140 6f 2c a4 be d0 01 37 be 69 9a 12 be b5 f9 86 be
       -0.3206515 -0.17871785 -0.14316715 -0.26362386
000150 a1 ad ba bd 76 43 31 be 20 d6 9a be b2 fa c0 3e
       -0.09115148 -0.1731089 -0.3024149 0.37691265
000160 4b 2c 95 be 0c e6 08 be 7f 9a f6 bc ec cc 96 be
       -0.29135355 -0.13369006 -0.030102966 -0.29453218
000170 c4 82 9a be 74 7a 33 be 81 54 3c be aa f8 2f 3c
       -0.3017789 -0.17527181 -0.1839161 0.0107404385
000180 eb 9d c9 be ed 87 7b 3d 7d e7 9a 3d 23 9f 95 3e
       -0.39378294 0.061408926 0.07563684 0.29222974
000190 56 c9 a1 3d 79 45 7d be c6 fa 49 be 8c b8 90 be
       0.0789973 -0.24733533 -0.19724569 -0.28265798
0001a0 d9 7d e0 3d f2 7c 11 3f b8 06 d6 be 99 0d df 3e
       0.109615035 0.56831276 -0.41802 0.43565062
0001b0 32 d8 96 3d 31 f0 e3 bd 66 02 1d bd c1 bf 8c 3e
       0.07365455 -0.11129797 -0.038332365 0.27490047
0001c0 46 30 22 3e ce 62 63 be e8 a4 62 be 29 56 f4 bd
       0.15838727 -0.2220566 -0.22133219 -0.11930496
0001d0 57 f8 8f 3e 08 15 81 be 33 d6 76 bd 30 4a fb bd
       0.28119156 -0.25211358 -0.06026287 -0.122700095
0001e0 c2 99 2e be 00 e8 28 be c7 f0 93 be 2c c7 1b 3e
       -0.17050841 -0.16494751 -0.28894636 0.15212697
0001f0 9d 78 73 be ca 70 09 3e 5f 4e 40 be 54 08 b3 be
       -0.23776479 0.13421932 -0.18779896 -0.3496729
000200 ba b1 bd bd 03 7e 4e bd f8 ef 25 3e de ca 8c 3d
       -0.09262414 -0.050413143 0.16204822 0.06874631
000210 4c 5a fd 3d 26 44 44 3e f9 f8 96 be c2 0d 26 be
       0.123707384 0.19166622 -0.29486826 -0.16216186
000220 f6 da bd bd 46 bd 90 be ec 18 ce 3d 1c f1 35 be
       -0.09270279 -0.28269404 0.10063347 -0.17767757
000230 94 26 67 be a2 68 7c be 22 07 29 be a5 81 eb be
       -0.2257331 -0.24649289 -0.16506627 -0.45997348
000240 3e 8e 85 3e d2 a2 71 be 82 6c 54 3e 9f 8e f0 3e
       0.26085085 -0.23597267 0.20744517 0.4698381
000250 a0 cd a2 3e 3e c7 f9 bd 75 50 52 be 75 92 d3 bb
       0.31797504 -0.121962056 -0.20538504 -0.006456668
000260 d8 82 1a 3f 19 09 18 bd 8b f1 ab be ca 93 2c 3e
       0.603559 -0.03711805 -0.3358272 0.16853252
000270 45 66 37 bd 95 56 3e bd 88 15 d2 3e 0a 3b a3 3e
       -0.044775266 -0.04646929 0.41032052 0.3188098
000280 56 83 1a be 02 99 69 3d 29 a2 d4 be cd 36 a0 be
       -0.15089163 0.057030685 -0.41529968 -0.3129181
000290 83 e9 99 bd 13 05 4f 3f d5 12 0c 3f ef bb 92 be
       -0.07515242 0.8086712 0.54716235 -0.28659007
0002a0 01 3e 33 bd 38 c1 30 be 6d 7e 26 be 38 8e 19 be
       -0.043760303 -0.17261207 -0.16259165 -0.14995658
0002b0 fb 5b 14 3e a9 ee a5 3d f6 e7 9e 3e ef fa 45 be
       0.14488213 0.081021614 0.31036347 -0.19334005
0002c0 f5 ea 57 be a1 cb 93 3d 06 a9 bc 3e cb 81 1b 3e
       -0.21085723 0.072165735 0.36847705 0.15186231
0002d0 f8 43 4b 3e 61 82 e0 b8 d3 b4 db 3e 7b 56 54 be
       0.19850147 -0.00010705437 0.42911395 -0.20736115
0002e0 e5 52 e6 bc 3c 8b af be 91 00 7e be 1a 73 f4 bd
       -0.028115699 -0.34285915 -0.24804904 -0.119360164
0002f0 7c 3f aa ba a0 a5 53 3d 82 62 9f be b0 31 86 bd
       -0.001298889 0.051671624 -0.31129843 -0.06552446
000300 b5 41 ed be d6 02 34 be 05 72 96 be 3c 78 de be
       -0.46339193 -0.17579207 -0.29383865 -0.43451107
000310 28 ae b7 be cc 66 31 be 7a c0 9f be 97 ab 11 be
       -0.35875058 -0.1732437 -0.31201535 -0.14225613
000320 3e bc 41 be 0e 60 b7 3f c0 f9 46 3a 1e 3a 57 be
       -0.18919465 1.4326189 0.0007590316 -0.21018264
000330 15 a6 a2 bd b1 0d 41 be e9 d9 e0 3e 3d 83 79 be
       -0.07941834 -0.18852879 0.43916252 -0.2436647
000340 ad 47 9c be c9 08 08 bf d9 64 50 be 94 c4 65 be
       -0.30523434 -0.53138405 -0.2035097 -0.2243827
000350 ec e7 3c be d3 8d a3 be f7 53 45 3e f2 e3 d0 3e
       -0.18447846 -0.3194414 0.19270311 0.40798908
000360 34 a0 32 be f5 e7 bd bd b6 42 d7 be b1 3e 06 be
       -0.17443925 -0.09272758 -0.42043084 -0.13109852
000370 74 7d 0f bf 90 d4 88 be bc 45 56 be 28 1c 88 3c
       -0.560508 -0.26724672 -0.20925039 0.016614988
000380 79 a7 35 be 92 7d f4 3d 79 80 91 3e bc 43 92 be
       -0.17739667 0.11938013 0.2841833 -0.28567302
000390 d8 87 a7 bd 24 16 ee bb e9 a9 41 bd 6e 34 14 3d
       -0.08180207 -0.007265823 -0.04728118 0.036182813
0003a0 24 68 c5 bd c2 a1 54 be 47 07 46 be 2e 9c e7 3e
       -0.09639004 -0.2076483 -0.19338714 0.45236343
0003b0 dc 38 83 3e f8 d4 a7 3d 84 11 26 be 32 bc 43 3d
       0.25629318 0.081949174 -0.16217619 0.0477869
0003c0 4d 2f 93 be f9 43 ca 3f 56 fb 34 be ef 86 1e be
       -0.28747025 1.5801994 -0.17674002 -0.1548116
0003d0 c2 7c 52 be c5 d1 aa be 1f 59 97 be be 28 43 be
       -0.20555404 -0.33363166 -0.29560181 -0.1905851
0003e0 ef 0a 7e be 60 16 35 be bf b2 b7 be a5 9d 87 be
       -0.24808858 -0.17684317 -0.3587856 -0.2648746
0003f0 84 f4 b9 be 08 48 b2 bd e2 49 85 3c b1 13 f1 bc
       -0.36319363 -0.08705145 0.016270582 -0.029428335

linear2.weight f4 [3, 256]
000000 30 24 02 be 2f e8 13 bd c9 29 a6 be 0e f3 86 3e
       -0.12709117 -0.0361101 -0.32453755 0.2635731
000010 a2 51 5d bc 87 21 23 3e 23 2f 14 bc ae 8d 3f be
       -0.013508232 0.15930758 -0.009044441 -0.1870639
000020 57 35 9c 3e 68 84 45 bd 4d ce e5 bd ad 55 3a 3b
       0.30509445 -0.048221976 -0.112209894 0.0028432414
000030 95 90 aa 3e e9 ea 03 be 2e 53 82 3e d3 d8 98 bc
       0.33313432 -0.1288258 0.25454086 -0.018658077
000040 c3 68 0e 3d e2 fd 5d bd 85 65 28 be 4e 20 47 bf
       0.034767877 -0.0541972 -0.16444977 -0.7778367
000050 4a 0b dd bc f2 25 4c 3b b0 79 02 bd db a4 d2 be
       -0.026982922 0.0031150547 -0.03185433 -0.411414
000060 a0 3f 7d 3e db 97 42 be 80 ba 11 ba 76 c6 64 3e
       0.24731302 -0.19003241 -0.00055591017 0.22341332
000070 6a e0 0f bd 2f d1 4a bd 3d c0 23 3d ac cb a7 be
       -0.035126127 -0.0495159 0.039978255 -0.32772577
000080 61 2b ad bd e6 50 70 be 1c 22 30 be f2 3b 89 3c
       -0.084555395 -0.2346836 -0.17200512 0.016752217
000090 da d4 0f bb bf d4 61 bd 26 59 85 3c da 6c 34 bd
       -0.0021946938 -0.05513453 0.01627786 -0.04404912
0000a0 65 f6 40 3d 39 f8 88 bc f0 a5 a4 3c 11 30 57 3d
       0.04710998 -0.016719924 0.020098656 0.052536074
0000b0 50 27 f7 3b d4 6c b4 bc 40 b2 6c 3e c2 35 d3 3e
       0.007542528 -0.02202455 0.23114872 0.4125195
0000c0 86 87 3e bb f4 c7 93 3c 04 13 ab 3e 57 6a 78 bd
       -0.0029072477 0.018039681 0.33412945 -0.06064829
0000d0 22 fd 23 3e b0 e7 98 bd 32 ce 05 3d 58 a6 99 3e
       0.16014531 -0.07466066 0.032667346 0.30009723
0000e0 96 67 6d 3e bb b3 10 3e 94 de 54 be cb c8 f6 bd
       0.23184046 0.14131062 -0.20788032 -0.12050017
0000f0 7d 9d a9 bd 92 4a 5f be 20 89 df 3b d3 4b 1c be
       -0.08281992 -0.2180579 0.0068217665 -0.152633
000100 13 4e 0f 3d 13 89 79 3e 86 a7 51 3d 84 c1 63 be
       0.034986567 0.24368696 0.051185153 -0.22241789
000110 91 85 b1 be b2 9f 00 be 0d 6c 1c 3d c9 47 24 be
       -0.34672216 -0.12560919 0.038188983 -0.16043009
000120 e4 cf fd bd f3 07 6b bc b1 e9 b8 bd 0c 11 79 3e
       -0.123931676 -0.014345157 -0.09028948 0.24322909
000130 a6 83 57 3d cc 8a f2 3e 28 42 8b be b7 2b cb bd
       0.052615784 0.4737152 -0.2719891 -0.09920447
000140 39 76 7c bd 36 7e 5e 3e e2 8a 75 3d 13 f6 ed 3c
       -0.061636183 0.21727833 0.059946902 0.029048001
000150 fa 32 a1 be bd f5 23 3e 58 4a 0c bd 21 ed 89 3e
       -0.31484205 0.1601171 -0.034250587 0.26938727
000160 27 c8 e9 bd 33 e3 99 3e c0 9e 80 bd 55 06 89 3a
       -0.11415129 0.30056152 -0.06280279 0.0010454158
000170 3e b7 a1 be ba 78 f6 bd 4d 38 09 3d 01 ae 99 3d
       -0.31585115 -0.120347455 0.03350096 0.07503892
000180 cf c9 6a bd ec 1f df 3e 27 25 e1 bd ad 8f 9f 3e
       -0.057321366 0.43579042 -0.10993414 0.31164303
000190 ef d1 66 be 51 4d 10 bd d8 69 ad 3d 6b 61 df bb
       -0.22541021 -0.035229985 0.08467454 -0.006817033
0001a0 f7 9e 80 3e 3b da 78 3e 07 9a 17 be 07 66 ff 3d
       0.2512128 0.24301998 -0.1480485 0.12470632
0001b0 b3 b4 c4 3e 0f f3 49 be 67 f8 cf 3d f7 65 d6 3d
       0.38419113 -0.19721626 0.10154801 0.10468667
0001c0 96 b0 d2 3e 12 03 2f 3d 4d d6 07 bf ad a3 f2 3d
       0.4115035 0.042727537 -0.5306137 0.11847625
0001d0 b6 f9 b8 3e a9 f1 f2 3c 19 ed be be 45 64 19 3e
       0.36128014 0.029656248 -0.37290266 0.14979656
0001e0 8c 17 95 bc 62 02 f6 3d e1 0a 9f bc ff 6a fb be
       -0.018199705 0.12012173 -0.019414367 -0.4910507
0001f0 ee 3c a6 bd 0b a6 8c 3d cc 92 70 be 09 9d 15 bd
       -0.0811709 0.06867608 -0.23493499 -0.036526714
000200 54 88 f7 be 6b 85 29 bd 6d ad be 3e b6 d2 3d 3e
       -0.48346198 -0.041387003 0.37241688 0.18537411
000210 6c 2f af 3e a5 dc 26 bf e9 16 3a be e3 37 09 be
       0.34215868 -0.65180427 -0.18172802 -0.13400225
000220 c8 88 bd be cb 98 2b be 48 aa e2 3e 5b c7 06 be
       -0.37018418 -0.16757505 0.4427054 -0.13161986
000230 a9 57 9f 3e a0 0d 39 bd 5c 64 b2 be 47 6f 4a be
       0.31121567 -0.04517901 -0.34842193 -0.19769011
000240 f4 12 47 3e 7f e0 3d 3c 0b f2 9d 3e 14 1c 6d 3e
       0.19440824 0.011589169 0.30848727 0.23155242
000250 32 3d d9 3e ad 81 ee be b7 ad e7 be c1 ae 95 bd
       0.424295 -0.4658331 -0.4524972 -0.07308722
000260 04 b5 1b 3e 16 9c 88 bd 29 c3 c6 bd 82 9a 08 3d
       0.1520577 -0.06670396 -0.097051926 0.033350475
000270 d0 9e 3b 3e c6 95 0c bf d9 5c 90 3e fc ce 66 3e
       0.18322301 -0.54916036 0.28195837 0.22539896
000280 95 6f c3 bb 94 6c f8 3d 53 19 1e 3d c4 16 b8 3c
       -0.0059642293 0.12130085 0.03859837 0.022471793
000290 74 e3 1f bf 5d 74 0a 3e 09 f7 91 3e 8c a1 3c be
       -0.6245644 0.13520952 0.28508785 -0.18421
0002a0 88 dc 73 bd bc 5c 79 be 1b 0c 92 be 5b 16 f5 be
       -0.059536487 -0.24351782 -0.2852486 -0.47868618
0002b0 48 7f ab be 36 b9 26 3f 2e 6b 82 3e 30 43 d5 39
       -0.33495545 0.6512636 0.25472397 0.00040676584
0002c0 49 e5 1c be 68 4f 8a bd 1d 9f 8e 3e c9 3a f9 be
       -0.1532184 -0.06753427 0.2785577 -0.48677662
0002d0 ed c6 b8 3e 06 61 89 3e bd 2d 8f 3e 4b d3 e4 bd
       0.36089268 0.26831836 0.27964583 -0.111731134
0002e0 00 9f e9 3e 34 26 79 bd 27 8e 24 be b3 27 04 3e
       0.4562912 -0.06082745 -0.16069852 0.12905769
0002f0 71 fa 29 bd d9 95 8b be 97 81 4f bd 44 24 5b 3d
       -0.041498605 -0.27262762 -0.050660696 0.053501382
000300 b7 04 05 3c 55 a8 92 3c 7d 51 36 bb be 36 0f be
       0.0081188 0.017902533 -0.0027819567 -0.13985726
000310 80 cd bb 3d 31 b9 ce be af f8 44 3c 66 57 5e 3d
       0.091700554 -0.40375665 0.012022181 0.05428257
000320 d0 23 f0 3c aa 32 80 3e 7d f0 0b bf 37 8c 82 be
       0.029313952 0.25038654 -0.5466383 -0.254976
000330 b3 37 97 be b9 a8 6c bc 0f 51 a1 3e a2 72 5e be
       -0.29534683 -0.0144445235 0.31507155 -0.21723416
000340 dd 48 76 bd 7c 29 e9 bd a5 5e 41 be 2e 89 d8 3c
       -0.06012808 -0.11384866 -0.1888376 0.0264326
000350 1a 77 7f bd 74 c4 a3 bd a6 3e 08 3f cb 19 75 3e
       -0.062369443 -0.07996455 0.53220594 0.2393562
000360 82 fc 82 be 97 aa 49 3e 5f 3b be bd 98 65 dd be
       -0.25583273 0.19693981 -0.09288668 -0.43241572
000370 f8 75 2e 3d c5 ac c4 3b 06 0f 5d bd 44 ae 3c 3c
       0.042592973 0.006002041 -0.053969406 0.011516158
000380 2d f4 c3 bb c3 36 f3 3d 57 ad 6c 3e 0a 89 68 3d
       -0.0059800358 0.11875679 0.23112999 0.056771316
000390 e8 f9 35 3d 93 99 f8 bd de 04 0d bd 12 be 9e 3e
       0.044427782 -0.12138667 -0.03442847 0.31004387
0003a0 99 f0 d3 be d5 7e 4f bb a2 98 7c 3e 4e 30 c5 3e
       -0.413945 -0.003166129 0.246676 0.38513416
0003b0 2a 76 d8 3e 06 33 a1 3e 4b f6 63 bc d0 0e 02 be
       0.42277652 0.3148424 -0.013913701 -0.12700963
0003c0 1e 1b 0a 3c b8 88 a6 3e 9e 05 0e bc 39 26 e1 3b
       0.008429317 0.32526183 -0.008668331 0.0068710116
0003d0 95 85 4e 3c 2a 9e c5 3c d4 17 c0 bd bb 22 4f bd
       0.012605091 0.02412327 -0.09379545 -0.05057023
0003e0 36 18 75 bd 4f af 78 be 7f 51 90 bd 6a e6 aa 3e
       -0.059837542 -0.24285625 -0.07046794 0.33378917
0003f0 f9 b6 51 be 69 9b 45 3d ab 5b 5c 3e 0d bc 0c 3d
       -0.20479955 0.048243914 0.21519344 0.034359027

linear2.bias f4 [3]
000000 e0 8e 63 3e 24 34 b2 3d 7a a6 c5 3d
       0.22222471 0.08701351 0.096508935
